…
_________________________________________________________________
batchnorm_3 (TimeDistributed (None, None, 7, 7, 128)   512       
_________________________________________________________________
flatten (TimeDistributed)    (None, None, 6272)        0         
_________________________________________________________________
dropout (TimeDistributed)    (None, None, 6272)        0         
_________________________________________________________________
cu_dnnlstm (CuDNNLSTM)       (None, None, 2048)        68173824  
_________________________________________________________________
lambda (Lambda)              (None, 2048)              0         
_________________________________________________________________
dense (Dense)                (None, 1024)              2098176   
_________________________________________________________________
dropout_1 (Dropout)          (None, 1024)              0         
_________________________________________________________________
dense_1 (Dense)              (None, 512)               524800    
_________________________________________________________________
dropout_2 (Dropout)          (None, 512)               0         
_________________________________________________________________
dense_2 (Dense)              (None, 2)                 1026      
=================================================================
Total params: 70,900,770
Trainable params: 70,900,258
Non-trainable params: 512
_________________________________________________________________
